__________________________________________________________________________________________________
Layer (type)                    Output Shape         Param #     Connected to                     
==================================================================================================
inputs (InputLayer)             (None, 5120, 8)      0                                            
__________________________________________________________________________________________________
conv1d_50 (Conv1D)              (None, 5120, 32)     8224        inputs[0][0]                     
__________________________________________________________________________________________________
batch_normalization_35 (BatchNo (None, 5120, 32)     128         conv1d_50[0][0]                  
__________________________________________________________________________________________________
activation_19 (Activation)      (None, 5120, 32)     0           batch_normalization_35[0][0]     
__________________________________________________________________________________________________
conv1d_51 (Conv1D)              (None, 5120, 32)     16416       activation_19[0][0]              
__________________________________________________________________________________________________
batch_normalization_36 (BatchNo (None, 5120, 32)     128         conv1d_51[0][0]                  
__________________________________________________________________________________________________
activation_20 (Activation)      (None, 5120, 32)     0           batch_normalization_36[0][0]     
__________________________________________________________________________________________________
dropout_17 (Dropout)            (None, 5120, 32)     0           activation_20[0][0]              
__________________________________________________________________________________________________
max_pooling1d_17 (MaxPooling1D) (None, 5120, 32)     0           activation_19[0][0]              
__________________________________________________________________________________________________
conv1d_52 (Conv1D)              (None, 5120, 32)     16416       dropout_17[0][0]                 
__________________________________________________________________________________________________
add_1 (Add)                     (None, 5120, 32)     0           max_pooling1d_17[0][0]           
                                                                 conv1d_52[0][0]                  
__________________________________________________________________________________________________
batch_normalization_37 (BatchNo (None, 5120, 32)     128         add_1[0][0]                      
__________________________________________________________________________________________________
activation_21 (Activation)      (None, 5120, 32)     0           batch_normalization_37[0][0]     
__________________________________________________________________________________________________
dropout_18 (Dropout)            (None, 5120, 32)     0           activation_21[0][0]              
__________________________________________________________________________________________________
conv1d_53 (Conv1D)              (None, 2560, 32)     16416       dropout_18[0][0]                 
__________________________________________________________________________________________________
conv1d_1 (Conv1D)               (None, 5120, 32)     4128        inputs[0][0]                     
__________________________________________________________________________________________________
batch_normalization_38 (BatchNo (None, 2560, 32)     128         conv1d_53[0][0]                  
__________________________________________________________________________________________________
batch_normalization_1 (BatchNor (None, 5120, 32)     128         conv1d_1[0][0]                   
__________________________________________________________________________________________________
activation_22 (Activation)      (None, 2560, 32)     0           batch_normalization_38[0][0]     
__________________________________________________________________________________________________
activation_1 (Activation)       (None, 5120, 32)     0           batch_normalization_1[0][0]      
__________________________________________________________________________________________________
dropout_19 (Dropout)            (None, 2560, 32)     0           activation_22[0][0]              
__________________________________________________________________________________________________
conv1d_2 (Conv1D)               (None, 5120, 32)     16416       activation_1[0][0]               
__________________________________________________________________________________________________
max_pooling1d_18 (MaxPooling1D) (None, 2560, 32)     0           add_1[0][0]                      
__________________________________________________________________________________________________
conv1d_54 (Conv1D)              (None, 2560, 32)     16416       dropout_19[0][0]                 
__________________________________________________________________________________________________
batch_normalization_2 (BatchNor (None, 5120, 32)     128         conv1d_2[0][0]                   
__________________________________________________________________________________________________
add_2 (Add)                     (None, 2560, 32)     0           max_pooling1d_18[0][0]           
                                                                 conv1d_54[0][0]                  
__________________________________________________________________________________________________
activation_2 (Activation)       (None, 5120, 32)     0           batch_normalization_2[0][0]      
__________________________________________________________________________________________________
batch_normalization_39 (BatchNo (None, 2560, 32)     128         add_2[0][0]                      
__________________________________________________________________________________________________
dropout_1 (Dropout)             (None, 5120, 32)     0           activation_2[0][0]               
__________________________________________________________________________________________________
activation_23 (Activation)      (None, 2560, 32)     0           batch_normalization_39[0][0]     
__________________________________________________________________________________________________
max_pooling1d_1 (MaxPooling1D)  (None, 5120, 32)     0           activation_1[0][0]               
__________________________________________________________________________________________________
conv1d_3 (Conv1D)               (None, 5120, 32)     16416       dropout_1[0][0]                  
__________________________________________________________________________________________________
dropout_20 (Dropout)            (None, 2560, 32)     0           activation_23[0][0]              
__________________________________________________________________________________________________
concatenate_1 (Concatenate)     (None, 5120, 64)     0           max_pooling1d_1[0][0]            
                                                                 conv1d_3[0][0]                   
__________________________________________________________________________________________________
conv1d_55 (Conv1D)              (None, 2560, 32)     16416       dropout_20[0][0]                 
__________________________________________________________________________________________________
batch_normalization_3 (BatchNor (None, 5120, 64)     256         concatenate_1[0][0]              
__________________________________________________________________________________________________
batch_normalization_40 (BatchNo (None, 2560, 32)     128         conv1d_55[0][0]                  
__________________________________________________________________________________________________
conv1d_4 (Conv1D)               (None, 5120, 32)     2080        batch_normalization_3[0][0]      
__________________________________________________________________________________________________
activation_24 (Activation)      (None, 2560, 32)     0           batch_normalization_40[0][0]     
__________________________________________________________________________________________________
conv1d_5 (Conv1D)               (None, 2560, 32)     16416       conv1d_4[0][0]                   
__________________________________________________________________________________________________
dropout_21 (Dropout)            (None, 2560, 32)     0           activation_24[0][0]              
__________________________________________________________________________________________________
batch_normalization_4 (BatchNor (None, 2560, 32)     128         conv1d_5[0][0]                   
__________________________________________________________________________________________________
max_pooling1d_19 (MaxPooling1D) (None, 2560, 32)     0           add_2[0][0]                      
__________________________________________________________________________________________________
conv1d_56 (Conv1D)              (None, 2560, 32)     16416       dropout_21[0][0]                 
__________________________________________________________________________________________________
activation_3 (Activation)       (None, 2560, 32)     0           batch_normalization_4[0][0]      
__________________________________________________________________________________________________
add_3 (Add)                     (None, 2560, 32)     0           max_pooling1d_19[0][0]           
                                                                 conv1d_56[0][0]                  
__________________________________________________________________________________________________
dropout_2 (Dropout)             (None, 2560, 32)     0           activation_3[0][0]               
__________________________________________________________________________________________________
batch_normalization_41 (BatchNo (None, 2560, 32)     128         add_3[0][0]                      
__________________________________________________________________________________________________
max_pooling1d_2 (MaxPooling1D)  (None, 2560, 32)     0           conv1d_4[0][0]                   
__________________________________________________________________________________________________
conv1d_6 (Conv1D)               (None, 2560, 32)     16416       dropout_2[0][0]                  
__________________________________________________________________________________________________
activation_25 (Activation)      (None, 2560, 32)     0           batch_normalization_41[0][0]     
__________________________________________________________________________________________________
concatenate_2 (Concatenate)     (None, 2560, 64)     0           max_pooling1d_2[0][0]            
                                                                 conv1d_6[0][0]                   
__________________________________________________________________________________________________
dropout_22 (Dropout)            (None, 2560, 32)     0           activation_25[0][0]              
__________________________________________________________________________________________________
batch_normalization_5 (BatchNor (None, 2560, 64)     256         concatenate_2[0][0]              
__________________________________________________________________________________________________
conv1d_57 (Conv1D)              (None, 1280, 32)     16416       dropout_22[0][0]                 
__________________________________________________________________________________________________
conv1d_7 (Conv1D)               (None, 2560, 32)     2080        batch_normalization_5[0][0]      
__________________________________________________________________________________________________
batch_normalization_42 (BatchNo (None, 1280, 32)     128         conv1d_57[0][0]                  
__________________________________________________________________________________________________
conv1d_8 (Conv1D)               (None, 2560, 32)     16416       conv1d_7[0][0]                   
__________________________________________________________________________________________________
activation_26 (Activation)      (None, 1280, 32)     0           batch_normalization_42[0][0]     
__________________________________________________________________________________________________
batch_normalization_6 (BatchNor (None, 2560, 32)     128         conv1d_8[0][0]                   
__________________________________________________________________________________________________
dropout_23 (Dropout)            (None, 1280, 32)     0           activation_26[0][0]              
__________________________________________________________________________________________________
activation_4 (Activation)       (None, 2560, 32)     0           batch_normalization_6[0][0]      
__________________________________________________________________________________________________
max_pooling1d_20 (MaxPooling1D) (None, 1280, 32)     0           add_3[0][0]                      
__________________________________________________________________________________________________
conv1d_58 (Conv1D)              (None, 1280, 32)     16416       dropout_23[0][0]                 
__________________________________________________________________________________________________
dropout_3 (Dropout)             (None, 2560, 32)     0           activation_4[0][0]               
__________________________________________________________________________________________________
add_4 (Add)                     (None, 1280, 32)     0           max_pooling1d_20[0][0]           
                                                                 conv1d_58[0][0]                  
__________________________________________________________________________________________________
max_pooling1d_3 (MaxPooling1D)  (None, 2560, 32)     0           conv1d_7[0][0]                   
__________________________________________________________________________________________________
conv1d_9 (Conv1D)               (None, 2560, 32)     16416       dropout_3[0][0]                  
__________________________________________________________________________________________________
batch_normalization_43 (BatchNo (None, 1280, 32)     128         add_4[0][0]                      
__________________________________________________________________________________________________
concatenate_3 (Concatenate)     (None, 2560, 64)     0           max_pooling1d_3[0][0]            
                                                                 conv1d_9[0][0]                   
__________________________________________________________________________________________________
activation_27 (Activation)      (None, 1280, 32)     0           batch_normalization_43[0][0]     
__________________________________________________________________________________________________
batch_normalization_7 (BatchNor (None, 2560, 64)     256         concatenate_3[0][0]              
__________________________________________________________________________________________________
dropout_24 (Dropout)            (None, 1280, 32)     0           activation_27[0][0]              
__________________________________________________________________________________________________
conv1d_10 (Conv1D)              (None, 2560, 32)     2080        batch_normalization_7[0][0]      
__________________________________________________________________________________________________
conv1d_59 (Conv1D)              (None, 1280, 64)     32832       dropout_24[0][0]                 
__________________________________________________________________________________________________
conv1d_11 (Conv1D)              (None, 1280, 32)     16416       conv1d_10[0][0]                  
__________________________________________________________________________________________________
batch_normalization_44 (BatchNo (None, 1280, 64)     256         conv1d_59[0][0]                  
__________________________________________________________________________________________________
batch_normalization_8 (BatchNor (None, 1280, 32)     128         conv1d_11[0][0]                  
__________________________________________________________________________________________________
activation_28 (Activation)      (None, 1280, 64)     0           batch_normalization_44[0][0]     
__________________________________________________________________________________________________
activation_5 (Activation)       (None, 1280, 32)     0           batch_normalization_8[0][0]      
__________________________________________________________________________________________________
max_pooling1d_21 (MaxPooling1D) (None, 1280, 32)     0           add_4[0][0]                      
__________________________________________________________________________________________________
dropout_25 (Dropout)            (None, 1280, 64)     0           activation_28[0][0]              
__________________________________________________________________________________________________
dropout_4 (Dropout)             (None, 1280, 32)     0           activation_5[0][0]               
__________________________________________________________________________________________________
lambda_4 (Lambda)               (None, 1280, 64)     0           max_pooling1d_21[0][0]           
__________________________________________________________________________________________________
conv1d_60 (Conv1D)              (None, 1280, 64)     65600       dropout_25[0][0]                 
__________________________________________________________________________________________________
max_pooling1d_4 (MaxPooling1D)  (None, 1280, 32)     0           conv1d_10[0][0]                  
__________________________________________________________________________________________________
conv1d_12 (Conv1D)              (None, 1280, 32)     16416       dropout_4[0][0]                  
__________________________________________________________________________________________________
add_5 (Add)                     (None, 1280, 64)     0           lambda_4[0][0]                   
                                                                 conv1d_60[0][0]                  
__________________________________________________________________________________________________
concatenate_4 (Concatenate)     (None, 1280, 64)     0           max_pooling1d_4[0][0]            
                                                                 conv1d_12[0][0]                  
__________________________________________________________________________________________________
batch_normalization_45 (BatchNo (None, 1280, 64)     256         add_5[0][0]                      
__________________________________________________________________________________________________
batch_normalization_9 (BatchNor (None, 1280, 64)     256         concatenate_4[0][0]              
__________________________________________________________________________________________________
activation_29 (Activation)      (None, 1280, 64)     0           batch_normalization_45[0][0]     
__________________________________________________________________________________________________
conv1d_13 (Conv1D)              (None, 1280, 32)     2080        batch_normalization_9[0][0]      
__________________________________________________________________________________________________
dropout_26 (Dropout)            (None, 1280, 64)     0           activation_29[0][0]              
__________________________________________________________________________________________________
conv1d_14 (Conv1D)              (None, 1280, 64)     32832       conv1d_13[0][0]                  
__________________________________________________________________________________________________
conv1d_61 (Conv1D)              (None, 640, 64)      65600       dropout_26[0][0]                 
__________________________________________________________________________________________________
batch_normalization_10 (BatchNo (None, 1280, 64)     256         conv1d_14[0][0]                  
__________________________________________________________________________________________________
batch_normalization_46 (BatchNo (None, 640, 64)      256         conv1d_61[0][0]                  
__________________________________________________________________________________________________
activation_6 (Activation)       (None, 1280, 64)     0           batch_normalization_10[0][0]     
__________________________________________________________________________________________________
activation_30 (Activation)      (None, 640, 64)      0           batch_normalization_46[0][0]     
__________________________________________________________________________________________________
max_pooling1d_5 (MaxPooling1D)  (None, 1280, 32)     0           conv1d_13[0][0]                  
__________________________________________________________________________________________________
dropout_5 (Dropout)             (None, 1280, 64)     0           activation_6[0][0]               
__________________________________________________________________________________________________
dropout_27 (Dropout)            (None, 640, 64)      0           activation_30[0][0]              
__________________________________________________________________________________________________
lambda_1 (Lambda)               (None, 1280, 64)     0           max_pooling1d_5[0][0]            
__________________________________________________________________________________________________
conv1d_15 (Conv1D)              (None, 1280, 64)     65600       dropout_5[0][0]                  
__________________________________________________________________________________________________
max_pooling1d_22 (MaxPooling1D) (None, 640, 64)      0           add_5[0][0]                      
__________________________________________________________________________________________________
conv1d_62 (Conv1D)              (None, 640, 64)      65600       dropout_27[0][0]                 
__________________________________________________________________________________________________
concatenate_5 (Concatenate)     (None, 1280, 128)    0           lambda_1[0][0]                   
                                                                 conv1d_15[0][0]                  
__________________________________________________________________________________________________
add_6 (Add)                     (None, 640, 64)      0           max_pooling1d_22[0][0]           
                                                                 conv1d_62[0][0]                  
__________________________________________________________________________________________________
batch_normalization_11 (BatchNo (None, 1280, 128)    512         concatenate_5[0][0]              
__________________________________________________________________________________________________
batch_normalization_47 (BatchNo (None, 640, 64)      256         add_6[0][0]                      
__________________________________________________________________________________________________
conv1d_16 (Conv1D)              (None, 1280, 64)     8256        batch_normalization_11[0][0]     
__________________________________________________________________________________________________
activation_31 (Activation)      (None, 640, 64)      0           batch_normalization_47[0][0]     
__________________________________________________________________________________________________
conv1d_17 (Conv1D)              (None, 640, 64)      65600       conv1d_16[0][0]                  
__________________________________________________________________________________________________
dropout_28 (Dropout)            (None, 640, 64)      0           activation_31[0][0]              
__________________________________________________________________________________________________
batch_normalization_12 (BatchNo (None, 640, 64)      256         conv1d_17[0][0]                  
__________________________________________________________________________________________________
conv1d_63 (Conv1D)              (None, 640, 64)      65600       dropout_28[0][0]                 
__________________________________________________________________________________________________
activation_7 (Activation)       (None, 640, 64)      0           batch_normalization_12[0][0]     
__________________________________________________________________________________________________
batch_normalization_48 (BatchNo (None, 640, 64)      256         conv1d_63[0][0]                  
__________________________________________________________________________________________________
dropout_6 (Dropout)             (None, 640, 64)      0           activation_7[0][0]               
__________________________________________________________________________________________________
activation_32 (Activation)      (None, 640, 64)      0           batch_normalization_48[0][0]     
__________________________________________________________________________________________________
max_pooling1d_6 (MaxPooling1D)  (None, 640, 64)      0           conv1d_16[0][0]                  
__________________________________________________________________________________________________
conv1d_18 (Conv1D)              (None, 640, 64)      65600       dropout_6[0][0]                  
__________________________________________________________________________________________________
dropout_29 (Dropout)            (None, 640, 64)      0           activation_32[0][0]              
__________________________________________________________________________________________________
concatenate_6 (Concatenate)     (None, 640, 128)     0           max_pooling1d_6[0][0]            
                                                                 conv1d_18[0][0]                  
__________________________________________________________________________________________________
max_pooling1d_23 (MaxPooling1D) (None, 640, 64)      0           add_6[0][0]                      
__________________________________________________________________________________________________
conv1d_64 (Conv1D)              (None, 640, 64)      65600       dropout_29[0][0]                 
__________________________________________________________________________________________________
batch_normalization_13 (BatchNo (None, 640, 128)     512         concatenate_6[0][0]              
__________________________________________________________________________________________________
add_7 (Add)                     (None, 640, 64)      0           max_pooling1d_23[0][0]           
                                                                 conv1d_64[0][0]                  
__________________________________________________________________________________________________
conv1d_19 (Conv1D)              (None, 640, 64)      8256        batch_normalization_13[0][0]     
__________________________________________________________________________________________________
batch_normalization_49 (BatchNo (None, 640, 64)      256         add_7[0][0]                      
__________________________________________________________________________________________________
conv1d_20 (Conv1D)              (None, 640, 64)      65600       conv1d_19[0][0]                  
__________________________________________________________________________________________________
activation_33 (Activation)      (None, 640, 64)      0           batch_normalization_49[0][0]     
__________________________________________________________________________________________________
batch_normalization_14 (BatchNo (None, 640, 64)      256         conv1d_20[0][0]                  
__________________________________________________________________________________________________
dropout_30 (Dropout)            (None, 640, 64)      0           activation_33[0][0]              
__________________________________________________________________________________________________
activation_8 (Activation)       (None, 640, 64)      0           batch_normalization_14[0][0]     
__________________________________________________________________________________________________
conv1d_65 (Conv1D)              (None, 320, 64)      65600       dropout_30[0][0]                 
__________________________________________________________________________________________________
dropout_7 (Dropout)             (None, 640, 64)      0           activation_8[0][0]               
__________________________________________________________________________________________________
batch_normalization_50 (BatchNo (None, 320, 64)      256         conv1d_65[0][0]                  
__________________________________________________________________________________________________
max_pooling1d_7 (MaxPooling1D)  (None, 640, 64)      0           conv1d_19[0][0]                  
__________________________________________________________________________________________________
conv1d_21 (Conv1D)              (None, 640, 64)      65600       dropout_7[0][0]                  
__________________________________________________________________________________________________
activation_34 (Activation)      (None, 320, 64)      0           batch_normalization_50[0][0]     
__________________________________________________________________________________________________
concatenate_7 (Concatenate)     (None, 640, 128)     0           max_pooling1d_7[0][0]            
                                                                 conv1d_21[0][0]                  
__________________________________________________________________________________________________
dropout_31 (Dropout)            (None, 320, 64)      0           activation_34[0][0]              
__________________________________________________________________________________________________
batch_normalization_15 (BatchNo (None, 640, 128)     512         concatenate_7[0][0]              
__________________________________________________________________________________________________
max_pooling1d_24 (MaxPooling1D) (None, 320, 64)      0           add_7[0][0]                      
__________________________________________________________________________________________________
conv1d_66 (Conv1D)              (None, 320, 64)      65600       dropout_31[0][0]                 
__________________________________________________________________________________________________
conv1d_22 (Conv1D)              (None, 640, 64)      8256        batch_normalization_15[0][0]     
__________________________________________________________________________________________________
add_8 (Add)                     (None, 320, 64)      0           max_pooling1d_24[0][0]           
                                                                 conv1d_66[0][0]                  
__________________________________________________________________________________________________
conv1d_23 (Conv1D)              (None, 320, 64)      65600       conv1d_22[0][0]                  
__________________________________________________________________________________________________
batch_normalization_51 (BatchNo (None, 320, 64)      256         add_8[0][0]                      
__________________________________________________________________________________________________
batch_normalization_16 (BatchNo (None, 320, 64)      256         conv1d_23[0][0]                  
__________________________________________________________________________________________________
activation_35 (Activation)      (None, 320, 64)      0           batch_normalization_51[0][0]     
__________________________________________________________________________________________________
activation_9 (Activation)       (None, 320, 64)      0           batch_normalization_16[0][0]     
__________________________________________________________________________________________________
dropout_32 (Dropout)            (None, 320, 64)      0           activation_35[0][0]              
__________________________________________________________________________________________________
dropout_8 (Dropout)             (None, 320, 64)      0           activation_9[0][0]               
__________________________________________________________________________________________________
conv1d_67 (Conv1D)              (None, 320, 128)     131200      dropout_32[0][0]                 
__________________________________________________________________________________________________
max_pooling1d_8 (MaxPooling1D)  (None, 320, 64)      0           conv1d_22[0][0]                  
__________________________________________________________________________________________________
conv1d_24 (Conv1D)              (None, 320, 64)      65600       dropout_8[0][0]                  
__________________________________________________________________________________________________
batch_normalization_52 (BatchNo (None, 320, 128)     512         conv1d_67[0][0]                  
__________________________________________________________________________________________________
concatenate_8 (Concatenate)     (None, 320, 128)     0           max_pooling1d_8[0][0]            
                                                                 conv1d_24[0][0]                  
__________________________________________________________________________________________________
activation_36 (Activation)      (None, 320, 128)     0           batch_normalization_52[0][0]     
__________________________________________________________________________________________________
batch_normalization_17 (BatchNo (None, 320, 128)     512         concatenate_8[0][0]              
__________________________________________________________________________________________________
max_pooling1d_25 (MaxPooling1D) (None, 320, 64)      0           add_8[0][0]                      
__________________________________________________________________________________________________
dropout_33 (Dropout)            (None, 320, 128)     0           activation_36[0][0]              
__________________________________________________________________________________________________
conv1d_25 (Conv1D)              (None, 320, 64)      8256        batch_normalization_17[0][0]     
__________________________________________________________________________________________________
lambda_5 (Lambda)               (None, 320, 128)     0           max_pooling1d_25[0][0]           
__________________________________________________________________________________________________
conv1d_68 (Conv1D)              (None, 320, 128)     262272      dropout_33[0][0]                 
__________________________________________________________________________________________________
conv1d_26 (Conv1D)              (None, 320, 128)     131200      conv1d_25[0][0]                  
__________________________________________________________________________________________________
add_9 (Add)                     (None, 320, 128)     0           lambda_5[0][0]                   
                                                                 conv1d_68[0][0]                  
__________________________________________________________________________________________________
batch_normalization_18 (BatchNo (None, 320, 128)     512         conv1d_26[0][0]                  
__________________________________________________________________________________________________
batch_normalization_53 (BatchNo (None, 320, 128)     512         add_9[0][0]                      
__________________________________________________________________________________________________
activation_10 (Activation)      (None, 320, 128)     0           batch_normalization_18[0][0]     
__________________________________________________________________________________________________
activation_37 (Activation)      (None, 320, 128)     0           batch_normalization_53[0][0]     
__________________________________________________________________________________________________
max_pooling1d_9 (MaxPooling1D)  (None, 320, 64)      0           conv1d_25[0][0]                  
__________________________________________________________________________________________________
dropout_9 (Dropout)             (None, 320, 128)     0           activation_10[0][0]              
__________________________________________________________________________________________________
dropout_34 (Dropout)            (None, 320, 128)     0           activation_37[0][0]              
__________________________________________________________________________________________________
lambda_2 (Lambda)               (None, 320, 128)     0           max_pooling1d_9[0][0]            
__________________________________________________________________________________________________
conv1d_27 (Conv1D)              (None, 320, 128)     262272      dropout_9[0][0]                  
__________________________________________________________________________________________________
conv1d_69 (Conv1D)              (None, 160, 128)     262272      dropout_34[0][0]                 
__________________________________________________________________________________________________
concatenate_9 (Concatenate)     (None, 320, 256)     0           lambda_2[0][0]                   
                                                                 conv1d_27[0][0]                  
__________________________________________________________________________________________________
batch_normalization_54 (BatchNo (None, 160, 128)     512         conv1d_69[0][0]                  
__________________________________________________________________________________________________
batch_normalization_19 (BatchNo (None, 320, 256)     1024        concatenate_9[0][0]              
__________________________________________________________________________________________________
activation_38 (Activation)      (None, 160, 128)     0           batch_normalization_54[0][0]     
__________________________________________________________________________________________________
conv1d_28 (Conv1D)              (None, 320, 128)     32896       batch_normalization_19[0][0]     
__________________________________________________________________________________________________
dropout_35 (Dropout)            (None, 160, 128)     0           activation_38[0][0]              
__________________________________________________________________________________________________
conv1d_29 (Conv1D)              (None, 160, 128)     262272      conv1d_28[0][0]                  
__________________________________________________________________________________________________
max_pooling1d_26 (MaxPooling1D) (None, 160, 128)     0           add_9[0][0]                      
__________________________________________________________________________________________________
conv1d_70 (Conv1D)              (None, 160, 128)     262272      dropout_35[0][0]                 
__________________________________________________________________________________________________
batch_normalization_20 (BatchNo (None, 160, 128)     512         conv1d_29[0][0]                  
__________________________________________________________________________________________________
add_10 (Add)                    (None, 160, 128)     0           max_pooling1d_26[0][0]           
                                                                 conv1d_70[0][0]                  
__________________________________________________________________________________________________
activation_11 (Activation)      (None, 160, 128)     0           batch_normalization_20[0][0]     
__________________________________________________________________________________________________
batch_normalization_55 (BatchNo (None, 160, 128)     512         add_10[0][0]                     
__________________________________________________________________________________________________
dropout_10 (Dropout)            (None, 160, 128)     0           activation_11[0][0]              
__________________________________________________________________________________________________
activation_39 (Activation)      (None, 160, 128)     0           batch_normalization_55[0][0]     
__________________________________________________________________________________________________
max_pooling1d_10 (MaxPooling1D) (None, 160, 128)     0           conv1d_28[0][0]                  
__________________________________________________________________________________________________
conv1d_30 (Conv1D)              (None, 160, 128)     262272      dropout_10[0][0]                 
__________________________________________________________________________________________________
dropout_36 (Dropout)            (None, 160, 128)     0           activation_39[0][0]              
__________________________________________________________________________________________________
concatenate_10 (Concatenate)    (None, 160, 256)     0           max_pooling1d_10[0][0]           
                                                                 conv1d_30[0][0]                  
__________________________________________________________________________________________________
conv1d_71 (Conv1D)              (None, 160, 128)     262272      dropout_36[0][0]                 
__________________________________________________________________________________________________
batch_normalization_21 (BatchNo (None, 160, 256)     1024        concatenate_10[0][0]             
__________________________________________________________________________________________________
batch_normalization_56 (BatchNo (None, 160, 128)     512         conv1d_71[0][0]                  
__________________________________________________________________________________________________
conv1d_31 (Conv1D)              (None, 160, 128)     32896       batch_normalization_21[0][0]     
__________________________________________________________________________________________________
activation_40 (Activation)      (None, 160, 128)     0           batch_normalization_56[0][0]     
__________________________________________________________________________________________________
conv1d_32 (Conv1D)              (None, 160, 128)     262272      conv1d_31[0][0]                  
__________________________________________________________________________________________________
dropout_37 (Dropout)            (None, 160, 128)     0           activation_40[0][0]              
__________________________________________________________________________________________________
batch_normalization_22 (BatchNo (None, 160, 128)     512         conv1d_32[0][0]                  
__________________________________________________________________________________________________
max_pooling1d_27 (MaxPooling1D) (None, 160, 128)     0           add_10[0][0]                     
__________________________________________________________________________________________________
conv1d_72 (Conv1D)              (None, 160, 128)     262272      dropout_37[0][0]                 
__________________________________________________________________________________________________
activation_12 (Activation)      (None, 160, 128)     0           batch_normalization_22[0][0]     
__________________________________________________________________________________________________
add_11 (Add)                    (None, 160, 128)     0           max_pooling1d_27[0][0]           
                                                                 conv1d_72[0][0]                  
__________________________________________________________________________________________________
dropout_11 (Dropout)            (None, 160, 128)     0           activation_12[0][0]              
__________________________________________________________________________________________________
batch_normalization_57 (BatchNo (None, 160, 128)     512         add_11[0][0]                     
__________________________________________________________________________________________________
max_pooling1d_11 (MaxPooling1D) (None, 160, 128)     0           conv1d_31[0][0]                  
__________________________________________________________________________________________________
conv1d_33 (Conv1D)              (None, 160, 128)     262272      dropout_11[0][0]                 
__________________________________________________________________________________________________
activation_41 (Activation)      (None, 160, 128)     0           batch_normalization_57[0][0]     
__________________________________________________________________________________________________
concatenate_11 (Concatenate)    (None, 160, 256)     0           max_pooling1d_11[0][0]           
                                                                 conv1d_33[0][0]                  
__________________________________________________________________________________________________
dropout_38 (Dropout)            (None, 160, 128)     0           activation_41[0][0]              
__________________________________________________________________________________________________
batch_normalization_23 (BatchNo (None, 160, 256)     1024        concatenate_11[0][0]             
__________________________________________________________________________________________________
conv1d_73 (Conv1D)              (None, 80, 128)      262272      dropout_38[0][0]                 
__________________________________________________________________________________________________
conv1d_34 (Conv1D)              (None, 160, 128)     32896       batch_normalization_23[0][0]     
__________________________________________________________________________________________________
batch_normalization_58 (BatchNo (None, 80, 128)      512         conv1d_73[0][0]                  
__________________________________________________________________________________________________
conv1d_35 (Conv1D)              (None, 80, 128)      262272      conv1d_34[0][0]                  
__________________________________________________________________________________________________
activation_42 (Activation)      (None, 80, 128)      0           batch_normalization_58[0][0]     
__________________________________________________________________________________________________
batch_normalization_24 (BatchNo (None, 80, 128)      512         conv1d_35[0][0]                  
__________________________________________________________________________________________________
dropout_39 (Dropout)            (None, 80, 128)      0           activation_42[0][0]              
__________________________________________________________________________________________________
activation_13 (Activation)      (None, 80, 128)      0           batch_normalization_24[0][0]     
__________________________________________________________________________________________________
max_pooling1d_28 (MaxPooling1D) (None, 80, 128)      0           add_11[0][0]                     
__________________________________________________________________________________________________
conv1d_74 (Conv1D)              (None, 80, 128)      262272      dropout_39[0][0]                 
__________________________________________________________________________________________________
dropout_12 (Dropout)            (None, 80, 128)      0           activation_13[0][0]              
__________________________________________________________________________________________________
add_12 (Add)                    (None, 80, 128)      0           max_pooling1d_28[0][0]           
                                                                 conv1d_74[0][0]                  
__________________________________________________________________________________________________
max_pooling1d_12 (MaxPooling1D) (None, 80, 128)      0           conv1d_34[0][0]                  
__________________________________________________________________________________________________
conv1d_36 (Conv1D)              (None, 80, 128)      262272      dropout_12[0][0]                 
__________________________________________________________________________________________________
batch_normalization_59 (BatchNo (None, 80, 128)      512         add_12[0][0]                     
__________________________________________________________________________________________________
concatenate_12 (Concatenate)    (None, 80, 256)      0           max_pooling1d_12[0][0]           
                                                                 conv1d_36[0][0]                  
__________________________________________________________________________________________________
activation_43 (Activation)      (None, 80, 128)      0           batch_normalization_59[0][0]     
__________________________________________________________________________________________________
batch_normalization_25 (BatchNo (None, 80, 256)      1024        concatenate_12[0][0]             
__________________________________________________________________________________________________
dropout_40 (Dropout)            (None, 80, 128)      0           activation_43[0][0]              
__________________________________________________________________________________________________
conv1d_37 (Conv1D)              (None, 80, 128)      32896       batch_normalization_25[0][0]     
__________________________________________________________________________________________________
conv1d_75 (Conv1D)              (None, 80, 256)      524544      dropout_40[0][0]                 
__________________________________________________________________________________________________
conv1d_38 (Conv1D)              (None, 80, 256)      524544      conv1d_37[0][0]                  
__________________________________________________________________________________________________
batch_normalization_60 (BatchNo (None, 80, 256)      1024        conv1d_75[0][0]                  
__________________________________________________________________________________________________
batch_normalization_26 (BatchNo (None, 80, 256)      1024        conv1d_38[0][0]                  
__________________________________________________________________________________________________
activation_44 (Activation)      (None, 80, 256)      0           batch_normalization_60[0][0]     
__________________________________________________________________________________________________
activation_14 (Activation)      (None, 80, 256)      0           batch_normalization_26[0][0]     
__________________________________________________________________________________________________
max_pooling1d_29 (MaxPooling1D) (None, 80, 128)      0           add_12[0][0]                     
__________________________________________________________________________________________________
dropout_41 (Dropout)            (None, 80, 256)      0           activation_44[0][0]              
__________________________________________________________________________________________________
max_pooling1d_13 (MaxPooling1D) (None, 80, 128)      0           conv1d_37[0][0]                  
__________________________________________________________________________________________________
dropout_13 (Dropout)            (None, 80, 256)      0           activation_14[0][0]              
__________________________________________________________________________________________________
lambda_6 (Lambda)               (None, 80, 256)      0           max_pooling1d_29[0][0]           
__________________________________________________________________________________________________
conv1d_76 (Conv1D)              (None, 80, 256)      1048832     dropout_41[0][0]                 
__________________________________________________________________________________________________
lambda_3 (Lambda)               (None, 80, 256)      0           max_pooling1d_13[0][0]           
__________________________________________________________________________________________________
conv1d_39 (Conv1D)              (None, 80, 256)      1048832     dropout_13[0][0]                 
__________________________________________________________________________________________________
add_13 (Add)                    (None, 80, 256)      0           lambda_6[0][0]                   
                                                                 conv1d_76[0][0]                  
__________________________________________________________________________________________________
concatenate_13 (Concatenate)    (None, 80, 512)      0           lambda_3[0][0]                   
                                                                 conv1d_39[0][0]                  
__________________________________________________________________________________________________
batch_normalization_61 (BatchNo (None, 80, 256)      1024        add_13[0][0]                     
__________________________________________________________________________________________________
batch_normalization_27 (BatchNo (None, 80, 512)      2048        concatenate_13[0][0]             
__________________________________________________________________________________________________
activation_45 (Activation)      (None, 80, 256)      0           batch_normalization_61[0][0]     
__________________________________________________________________________________________________
conv1d_40 (Conv1D)              (None, 80, 256)      131328      batch_normalization_27[0][0]     
__________________________________________________________________________________________________
dropout_42 (Dropout)            (None, 80, 256)      0           activation_45[0][0]              
__________________________________________________________________________________________________
conv1d_41 (Conv1D)              (None, 40, 256)      1048832     conv1d_40[0][0]                  
__________________________________________________________________________________________________
conv1d_77 (Conv1D)              (None, 40, 256)      1048832     dropout_42[0][0]                 
__________________________________________________________________________________________________
batch_normalization_28 (BatchNo (None, 40, 256)      1024        conv1d_41[0][0]                  
__________________________________________________________________________________________________
batch_normalization_62 (BatchNo (None, 40, 256)      1024        conv1d_77[0][0]                  
__________________________________________________________________________________________________
activation_15 (Activation)      (None, 40, 256)      0           batch_normalization_28[0][0]     
__________________________________________________________________________________________________
activation_46 (Activation)      (None, 40, 256)      0           batch_normalization_62[0][0]     
__________________________________________________________________________________________________
dropout_14 (Dropout)            (None, 40, 256)      0           activation_15[0][0]              
__________________________________________________________________________________________________
dropout_43 (Dropout)            (None, 40, 256)      0           activation_46[0][0]              
__________________________________________________________________________________________________
max_pooling1d_14 (MaxPooling1D) (None, 40, 256)      0           conv1d_40[0][0]                  
__________________________________________________________________________________________________
conv1d_42 (Conv1D)              (None, 40, 256)      1048832     dropout_14[0][0]                 
__________________________________________________________________________________________________
max_pooling1d_30 (MaxPooling1D) (None, 40, 256)      0           add_13[0][0]                     
__________________________________________________________________________________________________
conv1d_78 (Conv1D)              (None, 40, 256)      1048832     dropout_43[0][0]                 
__________________________________________________________________________________________________
concatenate_14 (Concatenate)    (None, 40, 512)      0           max_pooling1d_14[0][0]           
                                                                 conv1d_42[0][0]                  
__________________________________________________________________________________________________
add_14 (Add)                    (None, 40, 256)      0           max_pooling1d_30[0][0]           
                                                                 conv1d_78[0][0]                  
__________________________________________________________________________________________________
batch_normalization_29 (BatchNo (None, 40, 512)      2048        concatenate_14[0][0]             
__________________________________________________________________________________________________
batch_normalization_63 (BatchNo (None, 40, 256)      1024        add_14[0][0]                     
__________________________________________________________________________________________________
conv1d_43 (Conv1D)              (None, 40, 256)      131328      batch_normalization_29[0][0]     
__________________________________________________________________________________________________
activation_47 (Activation)      (None, 40, 256)      0           batch_normalization_63[0][0]     
__________________________________________________________________________________________________
conv1d_44 (Conv1D)              (None, 40, 256)      1048832     conv1d_43[0][0]                  
__________________________________________________________________________________________________
dropout_44 (Dropout)            (None, 40, 256)      0           activation_47[0][0]              
__________________________________________________________________________________________________
batch_normalization_30 (BatchNo (None, 40, 256)      1024        conv1d_44[0][0]                  
__________________________________________________________________________________________________
conv1d_79 (Conv1D)              (None, 40, 256)      1048832     dropout_44[0][0]                 
__________________________________________________________________________________________________
activation_16 (Activation)      (None, 40, 256)      0           batch_normalization_30[0][0]     
__________________________________________________________________________________________________
batch_normalization_64 (BatchNo (None, 40, 256)      1024        conv1d_79[0][0]                  
__________________________________________________________________________________________________
dropout_15 (Dropout)            (None, 40, 256)      0           activation_16[0][0]              
__________________________________________________________________________________________________
activation_48 (Activation)      (None, 40, 256)      0           batch_normalization_64[0][0]     
__________________________________________________________________________________________________
max_pooling1d_15 (MaxPooling1D) (None, 40, 256)      0           conv1d_43[0][0]                  
__________________________________________________________________________________________________
conv1d_45 (Conv1D)              (None, 40, 256)      1048832     dropout_15[0][0]                 
__________________________________________________________________________________________________
dropout_45 (Dropout)            (None, 40, 256)      0           activation_48[0][0]              
__________________________________________________________________________________________________
concatenate_15 (Concatenate)    (None, 40, 512)      0           max_pooling1d_15[0][0]           
                                                                 conv1d_45[0][0]                  
__________________________________________________________________________________________________
max_pooling1d_31 (MaxPooling1D) (None, 40, 256)      0           add_14[0][0]                     
__________________________________________________________________________________________________
conv1d_80 (Conv1D)              (None, 40, 256)      1048832     dropout_45[0][0]                 
__________________________________________________________________________________________________
batch_normalization_31 (BatchNo (None, 40, 512)      2048        concatenate_15[0][0]             
__________________________________________________________________________________________________
add_15 (Add)                    (None, 40, 256)      0           max_pooling1d_31[0][0]           
                                                                 conv1d_80[0][0]                  
__________________________________________________________________________________________________
conv1d_46 (Conv1D)              (None, 40, 256)      131328      batch_normalization_31[0][0]     
__________________________________________________________________________________________________
batch_normalization_65 (BatchNo (None, 40, 256)      1024        add_15[0][0]                     
__________________________________________________________________________________________________
conv1d_47 (Conv1D)              (None, 20, 256)      1048832     conv1d_46[0][0]                  
__________________________________________________________________________________________________
activation_49 (Activation)      (None, 40, 256)      0           batch_normalization_65[0][0]     
__________________________________________________________________________________________________
batch_normalization_32 (BatchNo (None, 20, 256)      1024        conv1d_47[0][0]                  
__________________________________________________________________________________________________
dropout_46 (Dropout)            (None, 40, 256)      0           activation_49[0][0]              
__________________________________________________________________________________________________
activation_17 (Activation)      (None, 20, 256)      0           batch_normalization_32[0][0]     
__________________________________________________________________________________________________
conv1d_81 (Conv1D)              (None, 20, 256)      1048832     dropout_46[0][0]                 
__________________________________________________________________________________________________
dropout_16 (Dropout)            (None, 20, 256)      0           activation_17[0][0]              
__________________________________________________________________________________________________
batch_normalization_66 (BatchNo (None, 20, 256)      1024        conv1d_81[0][0]                  
__________________________________________________________________________________________________
max_pooling1d_16 (MaxPooling1D) (None, 20, 256)      0           conv1d_46[0][0]                  
__________________________________________________________________________________________________
conv1d_48 (Conv1D)              (None, 20, 256)      1048832     dropout_16[0][0]                 
__________________________________________________________________________________________________
activation_50 (Activation)      (None, 20, 256)      0           batch_normalization_66[0][0]     
__________________________________________________________________________________________________
concatenate_16 (Concatenate)    (None, 20, 512)      0           max_pooling1d_16[0][0]           
                                                                 conv1d_48[0][0]                  
__________________________________________________________________________________________________
dropout_47 (Dropout)            (None, 20, 256)      0           activation_50[0][0]              
__________________________________________________________________________________________________
batch_normalization_33 (BatchNo (None, 20, 512)      2048        concatenate_16[0][0]             
__________________________________________________________________________________________________
max_pooling1d_32 (MaxPooling1D) (None, 20, 256)      0           add_15[0][0]                     
__________________________________________________________________________________________________
conv1d_82 (Conv1D)              (None, 20, 256)      1048832     dropout_47[0][0]                 
__________________________________________________________________________________________________
conv1d_49 (Conv1D)              (None, 20, 256)      131328      batch_normalization_33[0][0]     
__________________________________________________________________________________________________
add_16 (Add)                    (None, 20, 256)      0           max_pooling1d_32[0][0]           
                                                                 conv1d_82[0][0]                  
__________________________________________________________________________________________________
batch_normalization_34 (BatchNo (None, 20, 256)      1024        conv1d_49[0][0]                  
__________________________________________________________________________________________________
batch_normalization_67 (BatchNo (None, 20, 256)      1024        add_16[0][0]                     
__________________________________________________________________________________________________
activation_18 (Activation)      (None, 20, 256)      0           batch_normalization_34[0][0]     
__________________________________________________________________________________________________
activation_51 (Activation)      (None, 20, 256)      0           batch_normalization_67[0][0]     
__________________________________________________________________________________________________
age_input (InputLayer)          (None, 1)            0                                            
__________________________________________________________________________________________________
gender_input (InputLayer)       (None, 1)            0                                            
__________________________________________________________________________________________________
flatten_1 (Flatten)             (None, 5120)         0           activation_18[0][0]              
__________________________________________________________________________________________________
flatten_2 (Flatten)             (None, 5120)         0           activation_51[0][0]              
__________________________________________________________________________________________________
embedding_1 (Embedding)         (None, 1, 32)        288         age_input[0][0]                  
__________________________________________________________________________________________________
embedding_2 (Embedding)         (None, 1, 32)        96          gender_input[0][0]               
__________________________________________________________________________________________________
dense_1 (Dense)                 (None, 32)           163872      flatten_1[0][0]                  
__________________________________________________________________________________________________
dense_2 (Dense)                 (None, 32)           163872      flatten_2[0][0]                  
__________________________________________________________________________________________________
flatten_3 (Flatten)             (None, 32)           0           embedding_1[0][0]                
__________________________________________________________________________________________________
flatten_4 (Flatten)             (None, 32)           0           embedding_2[0][0]                
__________________________________________________________________________________________________
concatenate_17 (Concatenate)    (None, 128)          0           dense_1[0][0]                    
                                                                 dense_2[0][0]                    
                                                                 flatten_3[0][0]                  
                                                                 flatten_4[0][0]                  
__________________________________________________________________________________________________
dense_3 (Dense)                 (None, 32)           4128        concatenate_17[0][0]             
__________________________________________________________________________________________________
dense_4 (Dense)                 (None, 55)           1815        dense_3[0][0]                    
==================================================================================================
Total params: 21,998,007
Trainable params: 21,978,167
Non-trainable params: 19,840
__________________________________________________________________________________________________
